------------train
------------train
mynet(
  (context_path): MobileNetV3_Large(
    (conv1): Conv2d(3, 16, kernel_size=(3, 3), stride=(2, 2), padding=(1, 1), bias=False)
    (bn1): BatchNorm2d(16, eps=1e-05, momentum=0.1, affine=True, track_running_stats=True)
    (hs1): hswish()
    (bneck): Sequential(
      (0): Block(
        (conv1): Conv2d(16, 16, kernel_size=(1, 1), stride=(1, 1), bias=False)
        (bn1): BatchNorm2d(16, eps=1e-05, momentum=0.1, affine=True, track_running_stats=True)
        (nolinear1): ReLU(inplace)
        (conv2): Conv2d(16, 16, kernel_size=(3, 3), stride=(1, 1), padding=(1, 1), groups=16, bias=False)
        (bn2): BatchNorm2d(16, eps=1e-05, momentum=0.1, affine=True, track_running_stats=True)
        (nolinear2): ReLU(inplace)
        (conv3): Conv2d(16, 16, kernel_size=(1, 1), stride=(1, 1), bias=False)
        (bn3): BatchNorm2d(16, eps=1e-05, momentum=0.1, affine=True, track_running_stats=True)
        (shortcut): Sequential()
      )
      (1): Block(
        (conv1): Conv2d(16, 64, kernel_size=(1, 1), stride=(1, 1), bias=False)
        (bn1): BatchNorm2d(64, eps=1e-05, momentum=0.1, affine=True, track_running_stats=True)
        (nolinear1): ReLU(inplace)
        (conv2): Conv2d(64, 64, kernel_size=(3, 3), stride=(2, 2), padding=(1, 1), groups=64, bias=False)
        (bn2): BatchNorm2d(64, eps=1e-05, momentum=0.1, affine=True, track_running_stats=True)
        (nolinear2): ReLU(inplace)
        (conv3): Conv2d(64, 24, kernel_size=(1, 1), stride=(1, 1), bias=False)
        (bn3): BatchNorm2d(24, eps=1e-05, momentum=0.1, affine=True, track_running_stats=True)
        (shortcut): Sequential()
      )
      (2): Block(
        (conv1): Conv2d(24, 72, kernel_size=(1, 1), stride=(1, 1), bias=False)
        (bn1): BatchNorm2d(72, eps=1e-05, momentum=0.1, affine=True, track_running_stats=True)
        (nolinear1): ReLU(inplace)
        (conv2): Conv2d(72, 72, kernel_size=(3, 3), stride=(1, 1), padding=(1, 1), groups=72, bias=False)
        (bn2): BatchNorm2d(72, eps=1e-05, momentum=0.1, affine=True, track_running_stats=True)
        (nolinear2): ReLU(inplace)
        (conv3): Conv2d(72, 24, kernel_size=(1, 1), stride=(1, 1), bias=False)
        (bn3): BatchNorm2d(24, eps=1e-05, momentum=0.1, affine=True, track_running_stats=True)
        (shortcut): Sequential()
      )
      (3): Block(
        (se): SeModule(
          (se): Sequential(
            (0): Conv2d(40, 10, kernel_size=(1, 1), stride=(1, 1), bias=False)
            (1): BatchNorm2d(10, eps=1e-05, momentum=0.1, affine=True, track_running_stats=True)
            (2): ReLU(inplace)
            (3): Conv2d(10, 40, kernel_size=(1, 1), stride=(1, 1), bias=False)
            (4): BatchNorm2d(40, eps=1e-05, momentum=0.1, affine=True, track_running_stats=True)
            (5): hsigmoid()
          )
        )
        (conv1): Conv2d(24, 72, kernel_size=(1, 1), stride=(1, 1), bias=False)
        (bn1): BatchNorm2d(72, eps=1e-05, momentum=0.1, affine=True, track_running_stats=True)
        (nolinear1): ReLU(inplace)
        (conv2): Conv2d(72, 72, kernel_size=(5, 5), stride=(2, 2), padding=(2, 2), groups=72, bias=False)
        (bn2): BatchNorm2d(72, eps=1e-05, momentum=0.1, affine=True, track_running_stats=True)
        (nolinear2): ReLU(inplace)
        (conv3): Conv2d(72, 40, kernel_size=(1, 1), stride=(1, 1), bias=False)
        (bn3): BatchNorm2d(40, eps=1e-05, momentum=0.1, affine=True, track_running_stats=True)
        (shortcut): Sequential()
      )
      (4): Block(
        (se): SeModule(
          (se): Sequential(
            (0): Conv2d(40, 10, kernel_size=(1, 1), stride=(1, 1), bias=False)
            (1): BatchNorm2d(10, eps=1e-05, momentum=0.1, affine=True, track_running_stats=True)
            (2): ReLU(inplace)
            (3): Conv2d(10, 40, kernel_size=(1, 1), stride=(1, 1), bias=False)
            (4): BatchNorm2d(40, eps=1e-05, momentum=0.1, affine=True, track_running_stats=True)
            (5): hsigmoid()
          )
        )
        (conv1): Conv2d(40, 120, kernel_size=(1, 1), stride=(1, 1), bias=False)
        (bn1): BatchNorm2d(120, eps=1e-05, momentum=0.1, affine=True, track_running_stats=True)
        (nolinear1): ReLU(inplace)
        (conv2): Conv2d(120, 120, kernel_size=(5, 5), stride=(1, 1), padding=(2, 2), groups=120, bias=False)
        (bn2): BatchNorm2d(120, eps=1e-05, momentum=0.1, affine=True, track_running_stats=True)
        (nolinear2): ReLU(inplace)
        (conv3): Conv2d(120, 40, kernel_size=(1, 1), stride=(1, 1), bias=False)
        (bn3): BatchNorm2d(40, eps=1e-05, momentum=0.1, affine=True, track_running_stats=True)
        (shortcut): Sequential()
      )
      (5): Block(
        (se): SeModule(
          (se): Sequential(
            (0): Conv2d(40, 10, kernel_size=(1, 1), stride=(1, 1), bias=False)
            (1): BatchNorm2d(10, eps=1e-05, momentum=0.1, affine=True, track_running_stats=True)
            (2): ReLU(inplace)
            (3): Conv2d(10, 40, kernel_size=(1, 1), stride=(1, 1), bias=False)
            (4): BatchNorm2d(40, eps=1e-05, momentum=0.1, affine=True, track_running_stats=True)
            (5): hsigmoid()
          )
        )
        (conv1): Conv2d(40, 120, kernel_size=(1, 1), stride=(1, 1), bias=False)
        (bn1): BatchNorm2d(120, eps=1e-05, momentum=0.1, affine=True, track_running_stats=True)
        (nolinear1): ReLU(inplace)
        (conv2): Conv2d(120, 120, kernel_size=(5, 5), stride=(1, 1), padding=(2, 2), groups=120, bias=False)
        (bn2): BatchNorm2d(120, eps=1e-05, momentum=0.1, affine=True, track_running_stats=True)
        (nolinear2): ReLU(inplace)
        (conv3): Conv2d(120, 40, kernel_size=(1, 1), stride=(1, 1), bias=False)
        (bn3): BatchNorm2d(40, eps=1e-05, momentum=0.1, affine=True, track_running_stats=True)
        (shortcut): Sequential()
      )
      (6): Block(
        (conv1): Conv2d(40, 240, kernel_size=(1, 1), stride=(1, 1), bias=False)
        (bn1): BatchNorm2d(240, eps=1e-05, momentum=0.1, affine=True, track_running_stats=True)
        (nolinear1): hswish()
        (conv2): Conv2d(240, 240, kernel_size=(3, 3), stride=(2, 2), padding=(1, 1), groups=240, bias=False)
        (bn2): BatchNorm2d(240, eps=1e-05, momentum=0.1, affine=True, track_running_stats=True)
        (nolinear2): hswish()
        (conv3): Conv2d(240, 80, kernel_size=(1, 1), stride=(1, 1), bias=False)
        (bn3): BatchNorm2d(80, eps=1e-05, momentum=0.1, affine=True, track_running_stats=True)
        (shortcut): Sequential()
      )
      (7): Block(
        (conv1): Conv2d(80, 200, kernel_size=(1, 1), stride=(1, 1), bias=False)
        (bn1): BatchNorm2d(200, eps=1e-05, momentum=0.1, affine=True, track_running_stats=True)
        (nolinear1): hswish()
        (conv2): Conv2d(200, 200, kernel_size=(3, 3), stride=(1, 1), padding=(1, 1), groups=200, bias=False)
        (bn2): BatchNorm2d(200, eps=1e-05, momentum=0.1, affine=True, track_running_stats=True)
        (nolinear2): hswish()
        (conv3): Conv2d(200, 80, kernel_size=(1, 1), stride=(1, 1), bias=False)
        (bn3): BatchNorm2d(80, eps=1e-05, momentum=0.1, affine=True, track_running_stats=True)
        (shortcut): Sequential()
      )
      (8): Block(
        (conv1): Conv2d(80, 184, kernel_size=(1, 1), stride=(1, 1), bias=False)
        (bn1): BatchNorm2d(184, eps=1e-05, momentum=0.1, affine=True, track_running_stats=True)
        (nolinear1): hswish()
        (conv2): Conv2d(184, 184, kernel_size=(3, 3), stride=(1, 1), padding=(1, 1), groups=184, bias=False)
        (bn2): BatchNorm2d(184, eps=1e-05, momentum=0.1, affine=True, track_running_stats=True)
        (nolinear2): hswish()
        (conv3): Conv2d(184, 80, kernel_size=(1, 1), stride=(1, 1), bias=False)
        (bn3): BatchNorm2d(80, eps=1e-05, momentum=0.1, affine=True, track_running_stats=True)
        (shortcut): Sequential()
      )
      (9): Block(
        (conv1): Conv2d(80, 184, kernel_size=(1, 1), stride=(1, 1), bias=False)
        (bn1): BatchNorm2d(184, eps=1e-05, momentum=0.1, affine=True, track_running_stats=True)
        (nolinear1): hswish()
        (conv2): Conv2d(184, 184, kernel_size=(3, 3), stride=(1, 1), padding=(1, 1), groups=184, bias=False)
        (bn2): BatchNorm2d(184, eps=1e-05, momentum=0.1, affine=True, track_running_stats=True)
        (nolinear2): hswish()
        (conv3): Conv2d(184, 80, kernel_size=(1, 1), stride=(1, 1), bias=False)
        (bn3): BatchNorm2d(80, eps=1e-05, momentum=0.1, affine=True, track_running_stats=True)
        (shortcut): Sequential()
      )
      (10): Block(
        (se): SeModule(
          (se): Sequential(
            (0): Conv2d(112, 28, kernel_size=(1, 1), stride=(1, 1), bias=False)
            (1): BatchNorm2d(28, eps=1e-05, momentum=0.1, affine=True, track_running_stats=True)
            (2): ReLU(inplace)
            (3): Conv2d(28, 112, kernel_size=(1, 1), stride=(1, 1), bias=False)
            (4): BatchNorm2d(112, eps=1e-05, momentum=0.1, affine=True, track_running_stats=True)
            (5): hsigmoid()
          )
        )
        (conv1): Conv2d(80, 480, kernel_size=(1, 1), stride=(1, 1), bias=False)
        (bn1): BatchNorm2d(480, eps=1e-05, momentum=0.1, affine=True, track_running_stats=True)
        (nolinear1): hswish()
        (conv2): Conv2d(480, 480, kernel_size=(3, 3), stride=(1, 1), padding=(1, 1), groups=480, bias=False)
        (bn2): BatchNorm2d(480, eps=1e-05, momentum=0.1, affine=True, track_running_stats=True)
        (nolinear2): hswish()
        (conv3): Conv2d(480, 112, kernel_size=(1, 1), stride=(1, 1), bias=False)
        (bn3): BatchNorm2d(112, eps=1e-05, momentum=0.1, affine=True, track_running_stats=True)
        (shortcut): Sequential(
          (0): Conv2d(80, 112, kernel_size=(1, 1), stride=(1, 1), bias=False)
          (1): BatchNorm2d(112, eps=1e-05, momentum=0.1, affine=True, track_running_stats=True)
        )
      )
      (11): Block(
        (se): SeModule(
          (se): Sequential(
            (0): Conv2d(112, 28, kernel_size=(1, 1), stride=(1, 1), bias=False)
            (1): BatchNorm2d(28, eps=1e-05, momentum=0.1, affine=True, track_running_stats=True)
            (2): ReLU(inplace)
            (3): Conv2d(28, 112, kernel_size=(1, 1), stride=(1, 1), bias=False)
            (4): BatchNorm2d(112, eps=1e-05, momentum=0.1, affine=True, track_running_stats=True)
            (5): hsigmoid()
          )
        )
        (conv1): Conv2d(112, 672, kernel_size=(1, 1), stride=(1, 1), bias=False)
        (bn1): BatchNorm2d(672, eps=1e-05, momentum=0.1, affine=True, track_running_stats=True)
        (nolinear1): hswish()
        (conv2): Conv2d(672, 672, kernel_size=(3, 3), stride=(1, 1), padding=(1, 1), groups=672, bias=False)
        (bn2): BatchNorm2d(672, eps=1e-05, momentum=0.1, affine=True, track_running_stats=True)
        (nolinear2): hswish()
        (conv3): Conv2d(672, 112, kernel_size=(1, 1), stride=(1, 1), bias=False)
        (bn3): BatchNorm2d(112, eps=1e-05, momentum=0.1, affine=True, track_running_stats=True)
        (shortcut): Sequential()
      )
      (12): Block(
        (se): SeModule(
          (se): Sequential(
            (0): Conv2d(160, 40, kernel_size=(1, 1), stride=(1, 1), bias=False)
            (1): BatchNorm2d(40, eps=1e-05, momentum=0.1, affine=True, track_running_stats=True)
            (2): ReLU(inplace)
            (3): Conv2d(40, 160, kernel_size=(1, 1), stride=(1, 1), bias=False)
            (4): BatchNorm2d(160, eps=1e-05, momentum=0.1, affine=True, track_running_stats=True)
            (5): hsigmoid()
          )
        )
        (conv1): Conv2d(112, 672, kernel_size=(1, 1), stride=(1, 1), bias=False)
        (bn1): BatchNorm2d(672, eps=1e-05, momentum=0.1, affine=True, track_running_stats=True)
        (nolinear1): hswish()
        (conv2): Conv2d(672, 672, kernel_size=(5, 5), stride=(1, 1), padding=(2, 2), groups=672, bias=False)
        (bn2): BatchNorm2d(672, eps=1e-05, momentum=0.1, affine=True, track_running_stats=True)
        (nolinear2): hswish()
        (conv3): Conv2d(672, 160, kernel_size=(1, 1), stride=(1, 1), bias=False)
        (bn3): BatchNorm2d(160, eps=1e-05, momentum=0.1, affine=True, track_running_stats=True)
        (shortcut): Sequential(
          (0): Conv2d(112, 160, kernel_size=(1, 1), stride=(1, 1), bias=False)
          (1): BatchNorm2d(160, eps=1e-05, momentum=0.1, affine=True, track_running_stats=True)
        )
      )
      (13): Block(
        (se): SeModule(
          (se): Sequential(
            (0): Conv2d(160, 40, kernel_size=(1, 1), stride=(1, 1), bias=False)
            (1): BatchNorm2d(40, eps=1e-05, momentum=0.1, affine=True, track_running_stats=True)
            (2): ReLU(inplace)
            (3): Conv2d(40, 160, kernel_size=(1, 1), stride=(1, 1), bias=False)
            (4): BatchNorm2d(160, eps=1e-05, momentum=0.1, affine=True, track_running_stats=True)
            (5): hsigmoid()
          )
        )
        (conv1): Conv2d(160, 672, kernel_size=(1, 1), stride=(1, 1), bias=False)
        (bn1): BatchNorm2d(672, eps=1e-05, momentum=0.1, affine=True, track_running_stats=True)
        (nolinear1): hswish()
        (conv2): Conv2d(672, 672, kernel_size=(5, 5), stride=(2, 2), padding=(2, 2), groups=672, bias=False)
        (bn2): BatchNorm2d(672, eps=1e-05, momentum=0.1, affine=True, track_running_stats=True)
        (nolinear2): hswish()
        (conv3): Conv2d(672, 160, kernel_size=(1, 1), stride=(1, 1), bias=False)
        (bn3): BatchNorm2d(160, eps=1e-05, momentum=0.1, affine=True, track_running_stats=True)
        (shortcut): Sequential()
      )
      (14): Block(
        (se): SeModule(
          (se): Sequential(
            (0): Conv2d(160, 40, kernel_size=(1, 1), stride=(1, 1), bias=False)
            (1): BatchNorm2d(40, eps=1e-05, momentum=0.1, affine=True, track_running_stats=True)
            (2): ReLU(inplace)
            (3): Conv2d(40, 160, kernel_size=(1, 1), stride=(1, 1), bias=False)
            (4): BatchNorm2d(160, eps=1e-05, momentum=0.1, affine=True, track_running_stats=True)
            (5): hsigmoid()
          )
        )
        (conv1): Conv2d(160, 960, kernel_size=(1, 1), stride=(1, 1), bias=False)
        (bn1): BatchNorm2d(960, eps=1e-05, momentum=0.1, affine=True, track_running_stats=True)
        (nolinear1): hswish()
        (conv2): Conv2d(960, 960, kernel_size=(5, 5), stride=(1, 1), padding=(2, 2), groups=960, bias=False)
        (bn2): BatchNorm2d(960, eps=1e-05, momentum=0.1, affine=True, track_running_stats=True)
        (nolinear2): hswish()
        (conv3): Conv2d(960, 160, kernel_size=(1, 1), stride=(1, 1), bias=False)
        (bn3): BatchNorm2d(160, eps=1e-05, momentum=0.1, affine=True, track_running_stats=True)
        (shortcut): Sequential()
      )
    )
  )
  (global_context): GlobalContext(
    (global_avg): AdaptiveAvgPool2d(output_size=1)
    (conv_last): ConvBnRelu(
      (conv): Conv2d(160, 128, kernel_size=(1, 1), stride=(1, 1), bias=False)
      (bnrelu): InPlaceABNSync(128, eps=1e-05, momentum=0.1, affine=True, activation=leaky_relu, slope=0.01)
    )
    (se_channel_att): ATT(
      (avg): AdaptiveAvgPool2d(output_size=1)
      (amg): AdaptiveMaxPool2d(output_size=1)
      (conv1): ConvBnRelu(
        (conv): Conv2d(160, 128, kernel_size=(1, 1), stride=(1, 1), bias=False)
        (bnrelu): InPlaceABNSync(128, eps=1e-05, momentum=0.1, affine=True, activation=leaky_relu, slope=0.01)
      )
      (conv2): ConvBnRelu(
        (conv): Conv2d(128, 128, kernel_size=(1, 1), stride=(1, 1), bias=False)
        (bn): InPlaceABNSync(128, eps=1e-05, momentum=0.1, affine=True, activation=none)
      )
      (sigmoid): Sigmoid()
    )
  )
  (keep_res): KeepRes(
    (block1): sdBlock(
      (conv): ConvBnRelu(
        (conv): Conv2d(168, 64, kernel_size=(1, 1), stride=(1, 1), bias=False)
        (bnrelu): InPlaceABNSync(64, eps=1e-05, momentum=0.1, affine=True, activation=leaky_relu, slope=0.01)
      )
      (bn1): InPlaceABNSync(64, eps=1e-05, momentum=0.1, affine=True, activation=leaky_relu, slope=0.01)
      (bn2): InPlaceABNSync(64, eps=1e-05, momentum=0.1, affine=True, activation=none)
      (relu): LeakyReLU(negative_slope=0.01)
      (conv3x1_1): Conv2d(64, 64, kernel_size=(3, 1), stride=(1, 1), padding=(1, 0))
      (conv1x3_1): Conv2d(64, 64, kernel_size=(1, 3), stride=(1, 1), padding=(0, 1))
      (conv3x1_2): Conv2d(64, 64, kernel_size=(3, 1), stride=(1, 1), padding=(2, 0), dilation=(2, 1))
      (conv1x3_2): Conv2d(64, 64, kernel_size=(1, 3), stride=(1, 1), padding=(0, 2), dilation=(1, 2))
      (conv3x1_3): Conv2d(64, 64, kernel_size=(3, 1), stride=(1, 1), padding=(5, 0), dilation=(5, 1))
      (conv1x3_3): Conv2d(64, 64, kernel_size=(1, 3), stride=(1, 1), padding=(0, 5), dilation=(1, 5))
      (bn3): InPlaceABNSync(64, eps=1e-05, momentum=0.1, affine=True, activation=none)
    )
    (block2): sdBlock(
      (conv): ConvBnRelu(
        (conv): Conv2d(192, 64, kernel_size=(1, 1), stride=(1, 1), bias=False)
        (bnrelu): InPlaceABNSync(64, eps=1e-05, momentum=0.1, affine=True, activation=leaky_relu, slope=0.01)
      )
      (bn1): InPlaceABNSync(64, eps=1e-05, momentum=0.1, affine=True, activation=leaky_relu, slope=0.01)
      (bn2): InPlaceABNSync(64, eps=1e-05, momentum=0.1, affine=True, activation=none)
      (relu): LeakyReLU(negative_slope=0.01)
      (conv3x1_1): Conv2d(64, 64, kernel_size=(3, 1), stride=(1, 1), padding=(1, 0))
      (conv1x3_1): Conv2d(64, 64, kernel_size=(1, 3), stride=(1, 1), padding=(0, 1))
      (conv3x1_2): Conv2d(64, 64, kernel_size=(3, 1), stride=(1, 1), padding=(2, 0), dilation=(2, 1))
      (conv1x3_2): Conv2d(64, 64, kernel_size=(1, 3), stride=(1, 1), padding=(0, 2), dilation=(1, 2))
      (conv3x1_3): Conv2d(64, 64, kernel_size=(3, 1), stride=(1, 1), padding=(5, 0), dilation=(5, 1))
      (conv1x3_3): Conv2d(64, 64, kernel_size=(1, 3), stride=(1, 1), padding=(0, 5), dilation=(1, 5))
      (bn3): InPlaceABNSync(64, eps=1e-05, momentum=0.1, affine=True, activation=none)
    )
    (dim_reduction): ConvBnRelu(
      (conv): Conv2d(64, 32, kernel_size=(1, 1), stride=(1, 1), bias=False)
      (bnrelu): InPlaceABNSync(32, eps=1e-05, momentum=0.1, affine=True, activation=leaky_relu, slope=0.01)
    )
  )
  (merge_att): MergeAttention(
    (merge_att): ConvBnRelu(
      (conv): Conv2d(64, 32, kernel_size=(1, 1), stride=(1, 1), bias=False)
      (bnrelu): InPlaceABNSync(32, eps=1e-05, momentum=0.1, affine=True, activation=leaky_relu, slope=0.01)
    )
    (ch_avg_pool): AdaptiveAvgPool2d(output_size=1)
    (channel_se): Sequential(
      (0): Conv2d(64, 32, kernel_size=(1, 1), stride=(1, 1))
      (1): LeakyReLU(negative_slope=0.01)
      (2): Conv2d(32, 32, kernel_size=(1, 1), stride=(1, 1))
      (3): InPlaceABNSync(32, eps=1e-05, momentum=0.1, affine=True, activation=none)
      (4): Sigmoid()
    )
    (dim_reduction): ConvBnRelu(
      (conv): Conv2d(128, 32, kernel_size=(1, 1), stride=(1, 1), bias=False)
      (bnrelu): InPlaceABNSync(32, eps=1e-05, momentum=0.1, affine=True, activation=leaky_relu, slope=0.01)
    )
  )
  (last_conv1): OutputLayer(
    (drop): Dropout2d(p=0.1)
    (conv): ConvBnRelu(
      (conv): Conv2d(32, 19, kernel_size=(1, 1), stride=(1, 1), bias=False)
      (bn): InPlaceABNSync(19, eps=1e-05, momentum=0.1, affine=True, activation=none)
    )
  )
  (last_conv2): OutputLayer(
    (drop): Dropout2d(p=0.1)
    (conv): ConvBnRelu(
      (conv): Conv2d(32, 19, kernel_size=(1, 1), stride=(1, 1), bias=False)
      (bn): InPlaceABNSync(19, eps=1e-05, momentum=0.1, affine=True, activation=none)
    )
  )
  (last_conv3): OutputLayer(
    (drop): Dropout2d(p=0.1)
    (conv): ConvBnRelu(
      (conv): Conv2d(32, 19, kernel_size=(1, 1), stride=(1, 1), bias=False)
      (bn): InPlaceABNSync(19, eps=1e-05, momentum=0.1, affine=True, activation=none)
    )
  )
)
mynet(
  (context_path): MobileNetV3_Large(
    (conv1): Conv2d(3, 16, kernel_size=(3, 3), stride=(2, 2), padding=(1, 1), bias=False)
    (bn1): BatchNorm2d(16, eps=1e-05, momentum=0.1, affine=True, track_running_stats=True)
    (hs1): hswish()
    (bneck): Sequential(
      (0): Block(
        (conv1): Conv2d(16, 16, kernel_size=(1, 1), stride=(1, 1), bias=False)
        (bn1): BatchNorm2d(16, eps=1e-05, momentum=0.1, affine=True, track_running_stats=True)
        (nolinear1): ReLU(inplace)
        (conv2): Conv2d(16, 16, kernel_size=(3, 3), stride=(1, 1), padding=(1, 1), groups=16, bias=False)
        (bn2): BatchNorm2d(16, eps=1e-05, momentum=0.1, affine=True, track_running_stats=True)
        (nolinear2): ReLU(inplace)
        (conv3): Conv2d(16, 16, kernel_size=(1, 1), stride=(1, 1), bias=False)
        (bn3): BatchNorm2d(16, eps=1e-05, momentum=0.1, affine=True, track_running_stats=True)
        (shortcut): Sequential()
      )
      (1): Block(
        (conv1): Conv2d(16, 64, kernel_size=(1, 1), stride=(1, 1), bias=False)
        (bn1): BatchNorm2d(64, eps=1e-05, momentum=0.1, affine=True, track_running_stats=True)
        (nolinear1): ReLU(inplace)
        (conv2): Conv2d(64, 64, kernel_size=(3, 3), stride=(2, 2), padding=(1, 1), groups=64, bias=False)
        (bn2): BatchNorm2d(64, eps=1e-05, momentum=0.1, affine=True, track_running_stats=True)
        (nolinear2): ReLU(inplace)
        (conv3): Conv2d(64, 24, kernel_size=(1, 1), stride=(1, 1), bias=False)
        (bn3): BatchNorm2d(24, eps=1e-05, momentum=0.1, affine=True, track_running_stats=True)
        (shortcut): Sequential()
      )
      (2): Block(
        (conv1): Conv2d(24, 72, kernel_size=(1, 1), stride=(1, 1), bias=False)
        (bn1): BatchNorm2d(72, eps=1e-05, momentum=0.1, affine=True, track_running_stats=True)
        (nolinear1): ReLU(inplace)
        (conv2): Conv2d(72, 72, kernel_size=(3, 3), stride=(1, 1), padding=(1, 1), groups=72, bias=False)
        (bn2): BatchNorm2d(72, eps=1e-05, momentum=0.1, affine=True, track_running_stats=True)
        (nolinear2): ReLU(inplace)
        (conv3): Conv2d(72, 24, kernel_size=(1, 1), stride=(1, 1), bias=False)
        (bn3): BatchNorm2d(24, eps=1e-05, momentum=0.1, affine=True, track_running_stats=True)
        (shortcut): Sequential()
      )
      (3): Block(
        (se): SeModule(
          (se): Sequential(
            (0): Conv2d(40, 10, kernel_size=(1, 1), stride=(1, 1), bias=False)
            (1): BatchNorm2d(10, eps=1e-05, momentum=0.1, affine=True, track_running_stats=True)
            (2): ReLU(inplace)
            (3): Conv2d(10, 40, kernel_size=(1, 1), stride=(1, 1), bias=False)
            (4): BatchNorm2d(40, eps=1e-05, momentum=0.1, affine=True, track_running_stats=True)
            (5): hsigmoid()
          )
        )
        (conv1): Conv2d(24, 72, kernel_size=(1, 1), stride=(1, 1), bias=False)
        (bn1): BatchNorm2d(72, eps=1e-05, momentum=0.1, affine=True, track_running_stats=True)
        (nolinear1): ReLU(inplace)
        (conv2): Conv2d(72, 72, kernel_size=(5, 5), stride=(2, 2), padding=(2, 2), groups=72, bias=False)
        (bn2): BatchNorm2d(72, eps=1e-05, momentum=0.1, affine=True, track_running_stats=True)
        (nolinear2): ReLU(inplace)
        (conv3): Conv2d(72, 40, kernel_size=(1, 1), stride=(1, 1), bias=False)
        (bn3): BatchNorm2d(40, eps=1e-05, momentum=0.1, affine=True, track_running_stats=True)
        (shortcut): Sequential()
      )
      (4): Block(
        (se): SeModule(
          (se): Sequential(
            (0): Conv2d(40, 10, kernel_size=(1, 1), stride=(1, 1), bias=False)
            (1): BatchNorm2d(10, eps=1e-05, momentum=0.1, affine=True, track_running_stats=True)
            (2): ReLU(inplace)
            (3): Conv2d(10, 40, kernel_size=(1, 1), stride=(1, 1), bias=False)
            (4): BatchNorm2d(40, eps=1e-05, momentum=0.1, affine=True, track_running_stats=True)
            (5): hsigmoid()
          )
        )
        (conv1): Conv2d(40, 120, kernel_size=(1, 1), stride=(1, 1), bias=False)
        (bn1): BatchNorm2d(120, eps=1e-05, momentum=0.1, affine=True, track_running_stats=True)
        (nolinear1): ReLU(inplace)
        (conv2): Conv2d(120, 120, kernel_size=(5, 5), stride=(1, 1), padding=(2, 2), groups=120, bias=False)
        (bn2): BatchNorm2d(120, eps=1e-05, momentum=0.1, affine=True, track_running_stats=True)
        (nolinear2): ReLU(inplace)
        (conv3): Conv2d(120, 40, kernel_size=(1, 1), stride=(1, 1), bias=False)
        (bn3): BatchNorm2d(40, eps=1e-05, momentum=0.1, affine=True, track_running_stats=True)
        (shortcut): Sequential()
      )
      (5): Block(
        (se): SeModule(
          (se): Sequential(
            (0): Conv2d(40, 10, kernel_size=(1, 1), stride=(1, 1), bias=False)
            (1): BatchNorm2d(10, eps=1e-05, momentum=0.1, affine=True, track_running_stats=True)
            (2): ReLU(inplace)
            (3): Conv2d(10, 40, kernel_size=(1, 1), stride=(1, 1), bias=False)
            (4): BatchNorm2d(40, eps=1e-05, momentum=0.1, affine=True, track_running_stats=True)
            (5): hsigmoid()
          )
        )
        (conv1): Conv2d(40, 120, kernel_size=(1, 1), stride=(1, 1), bias=False)
        (bn1): BatchNorm2d(120, eps=1e-05, momentum=0.1, affine=True, track_running_stats=True)
        (nolinear1): ReLU(inplace)
        (conv2): Conv2d(120, 120, kernel_size=(5, 5), stride=(1, 1), padding=(2, 2), groups=120, bias=False)
        (bn2): BatchNorm2d(120, eps=1e-05, momentum=0.1, affine=True, track_running_stats=True)
        (nolinear2): ReLU(inplace)
        (conv3): Conv2d(120, 40, kernel_size=(1, 1), stride=(1, 1), bias=False)
        (bn3): BatchNorm2d(40, eps=1e-05, momentum=0.1, affine=True, track_running_stats=True)
        (shortcut): Sequential()
      )
      (6): Block(
        (conv1): Conv2d(40, 240, kernel_size=(1, 1), stride=(1, 1), bias=False)
        (bn1): BatchNorm2d(240, eps=1e-05, momentum=0.1, affine=True, track_running_stats=True)
        (nolinear1): hswish()
        (conv2): Conv2d(240, 240, kernel_size=(3, 3), stride=(2, 2), padding=(1, 1), groups=240, bias=False)
        (bn2): BatchNorm2d(240, eps=1e-05, momentum=0.1, affine=True, track_running_stats=True)
        (nolinear2): hswish()
        (conv3): Conv2d(240, 80, kernel_size=(1, 1), stride=(1, 1), bias=False)
        (bn3): BatchNorm2d(80, eps=1e-05, momentum=0.1, affine=True, track_running_stats=True)
        (shortcut): Sequential()
      )
      (7): Block(
        (conv1): Conv2d(80, 200, kernel_size=(1, 1), stride=(1, 1), bias=False)
        (bn1): BatchNorm2d(200, eps=1e-05, momentum=0.1, affine=True, track_running_stats=True)
        (nolinear1): hswish()
        (conv2): Conv2d(200, 200, kernel_size=(3, 3), stride=(1, 1), padding=(1, 1), groups=200, bias=False)
        (bn2): BatchNorm2d(200, eps=1e-05, momentum=0.1, affine=True, track_running_stats=True)
        (nolinear2): hswish()
        (conv3): Conv2d(200, 80, kernel_size=(1, 1), stride=(1, 1), bias=False)
        (bn3): BatchNorm2d(80, eps=1e-05, momentum=0.1, affine=True, track_running_stats=True)
        (shortcut): Sequential()
      )
      (8): Block(
        (conv1): Conv2d(80, 184, kernel_size=(1, 1), stride=(1, 1), bias=False)
        (bn1): BatchNorm2d(184, eps=1e-05, momentum=0.1, affine=True, track_running_stats=True)
        (nolinear1): hswish()
        (conv2): Conv2d(184, 184, kernel_size=(3, 3), stride=(1, 1), padding=(1, 1), groups=184, bias=False)
        (bn2): BatchNorm2d(184, eps=1e-05, momentum=0.1, affine=True, track_running_stats=True)
        (nolinear2): hswish()
        (conv3): Conv2d(184, 80, kernel_size=(1, 1), stride=(1, 1), bias=False)
        (bn3): BatchNorm2d(80, eps=1e-05, momentum=0.1, affine=True, track_running_stats=True)
        (shortcut): Sequential()
      )
      (9): Block(
        (conv1): Conv2d(80, 184, kernel_size=(1, 1), stride=(1, 1), bias=False)
        (bn1): BatchNorm2d(184, eps=1e-05, momentum=0.1, affine=True, track_running_stats=True)
        (nolinear1): hswish()
        (conv2): Conv2d(184, 184, kernel_size=(3, 3), stride=(1, 1), padding=(1, 1), groups=184, bias=False)
        (bn2): BatchNorm2d(184, eps=1e-05, momentum=0.1, affine=True, track_running_stats=True)
        (nolinear2): hswish()
        (conv3): Conv2d(184, 80, kernel_size=(1, 1), stride=(1, 1), bias=False)
        (bn3): BatchNorm2d(80, eps=1e-05, momentum=0.1, affine=True, track_running_stats=True)
        (shortcut): Sequential()
      )
      (10): Block(
        (se): SeModule(
          (se): Sequential(
            (0): Conv2d(112, 28, kernel_size=(1, 1), stride=(1, 1), bias=False)
            (1): BatchNorm2d(28, eps=1e-05, momentum=0.1, affine=True, track_running_stats=True)
            (2): ReLU(inplace)
            (3): Conv2d(28, 112, kernel_size=(1, 1), stride=(1, 1), bias=False)
            (4): BatchNorm2d(112, eps=1e-05, momentum=0.1, affine=True, track_running_stats=True)
            (5): hsigmoid()
          )
        )
        (conv1): Conv2d(80, 480, kernel_size=(1, 1), stride=(1, 1), bias=False)
        (bn1): BatchNorm2d(480, eps=1e-05, momentum=0.1, affine=True, track_running_stats=True)
        (nolinear1): hswish()
        (conv2): Conv2d(480, 480, kernel_size=(3, 3), stride=(1, 1), padding=(1, 1), groups=480, bias=False)
        (bn2): BatchNorm2d(480, eps=1e-05, momentum=0.1, affine=True, track_running_stats=True)
        (nolinear2): hswish()
        (conv3): Conv2d(480, 112, kernel_size=(1, 1), stride=(1, 1), bias=False)
        (bn3): BatchNorm2d(112, eps=1e-05, momentum=0.1, affine=True, track_running_stats=True)
        (shortcut): Sequential(
          (0): Conv2d(80, 112, kernel_size=(1, 1), stride=(1, 1), bias=False)
          (1): BatchNorm2d(112, eps=1e-05, momentum=0.1, affine=True, track_running_stats=True)
        )
      )
      (11): Block(
        (se): SeModule(
          (se): Sequential(
            (0): Conv2d(112, 28, kernel_size=(1, 1), stride=(1, 1), bias=False)
            (1): BatchNorm2d(28, eps=1e-05, momentum=0.1, affine=True, track_running_stats=True)
            (2): ReLU(inplace)
            (3): Conv2d(28, 112, kernel_size=(1, 1), stride=(1, 1), bias=False)
            (4): BatchNorm2d(112, eps=1e-05, momentum=0.1, affine=True, track_running_stats=True)
            (5): hsigmoid()
          )
        )
        (conv1): Conv2d(112, 672, kernel_size=(1, 1), stride=(1, 1), bias=False)
        (bn1): BatchNorm2d(672, eps=1e-05, momentum=0.1, affine=True, track_running_stats=True)
        (nolinear1): hswish()
        (conv2): Conv2d(672, 672, kernel_size=(3, 3), stride=(1, 1), padding=(1, 1), groups=672, bias=False)
        (bn2): BatchNorm2d(672, eps=1e-05, momentum=0.1, affine=True, track_running_stats=True)
        (nolinear2): hswish()
        (conv3): Conv2d(672, 112, kernel_size=(1, 1), stride=(1, 1), bias=False)
        (bn3): BatchNorm2d(112, eps=1e-05, momentum=0.1, affine=True, track_running_stats=True)
        (shortcut): Sequential()
      )
      (12): Block(
        (se): SeModule(
          (se): Sequential(
            (0): Conv2d(160, 40, kernel_size=(1, 1), stride=(1, 1), bias=False)
            (1): BatchNorm2d(40, eps=1e-05, momentum=0.1, affine=True, track_running_stats=True)
            (2): ReLU(inplace)
            (3): Conv2d(40, 160, kernel_size=(1, 1), stride=(1, 1), bias=False)
            (4): BatchNorm2d(160, eps=1e-05, momentum=0.1, affine=True, track_running_stats=True)
            (5): hsigmoid()
          )
        )
        (conv1): Conv2d(112, 672, kernel_size=(1, 1), stride=(1, 1), bias=False)
        (bn1): BatchNorm2d(672, eps=1e-05, momentum=0.1, affine=True, track_running_stats=True)
        (nolinear1): hswish()
        (conv2): Conv2d(672, 672, kernel_size=(5, 5), stride=(1, 1), padding=(2, 2), groups=672, bias=False)
        (bn2): BatchNorm2d(672, eps=1e-05, momentum=0.1, affine=True, track_running_stats=True)
        (nolinear2): hswish()
        (conv3): Conv2d(672, 160, kernel_size=(1, 1), stride=(1, 1), bias=False)
        (bn3): BatchNorm2d(160, eps=1e-05, momentum=0.1, affine=True, track_running_stats=True)
        (shortcut): Sequential(
          (0): Conv2d(112, 160, kernel_size=(1, 1), stride=(1, 1), bias=False)
          (1): BatchNorm2d(160, eps=1e-05, momentum=0.1, affine=True, track_running_stats=True)
        )
      )
      (13): Block(
        (se): SeModule(
          (se): Sequential(
            (0): Conv2d(160, 40, kernel_size=(1, 1), stride=(1, 1), bias=False)
            (1): BatchNorm2d(40, eps=1e-05, momentum=0.1, affine=True, track_running_stats=True)
            (2): ReLU(inplace)
            (3): Conv2d(40, 160, kernel_size=(1, 1), stride=(1, 1), bias=False)
            (4): BatchNorm2d(160, eps=1e-05, momentum=0.1, affine=True, track_running_stats=True)
            (5): hsigmoid()
          )
        )
        (conv1): Conv2d(160, 672, kernel_size=(1, 1), stride=(1, 1), bias=False)
        (bn1): BatchNorm2d(672, eps=1e-05, momentum=0.1, affine=True, track_running_stats=True)
        (nolinear1): hswish()
        (conv2): Conv2d(672, 672, kernel_size=(5, 5), stride=(2, 2), padding=(2, 2), groups=672, bias=False)
        (bn2): BatchNorm2d(672, eps=1e-05, momentum=0.1, affine=True, track_running_stats=True)
        (nolinear2): hswish()
        (conv3): Conv2d(672, 160, kernel_size=(1, 1), stride=(1, 1), bias=False)
        (bn3): BatchNorm2d(160, eps=1e-05, momentum=0.1, affine=True, track_running_stats=True)
        (shortcut): Sequential()
      )
      (14): Block(
        (se): SeModule(
          (se): Sequential(
            (0): Conv2d(160, 40, kernel_size=(1, 1), stride=(1, 1), bias=False)
            (1): BatchNorm2d(40, eps=1e-05, momentum=0.1, affine=True, track_running_stats=True)
            (2): ReLU(inplace)
            (3): Conv2d(40, 160, kernel_size=(1, 1), stride=(1, 1), bias=False)
            (4): BatchNorm2d(160, eps=1e-05, momentum=0.1, affine=True, track_running_stats=True)
            (5): hsigmoid()
          )
        )
        (conv1): Conv2d(160, 960, kernel_size=(1, 1), stride=(1, 1), bias=False)
        (bn1): BatchNorm2d(960, eps=1e-05, momentum=0.1, affine=True, track_running_stats=True)
        (nolinear1): hswish()
        (conv2): Conv2d(960, 960, kernel_size=(5, 5), stride=(1, 1), padding=(2, 2), groups=960, bias=False)
        (bn2): BatchNorm2d(960, eps=1e-05, momentum=0.1, affine=True, track_running_stats=True)
        (nolinear2): hswish()
        (conv3): Conv2d(960, 160, kernel_size=(1, 1), stride=(1, 1), bias=False)
        (bn3): BatchNorm2d(160, eps=1e-05, momentum=0.1, affine=True, track_running_stats=True)
        (shortcut): Sequential()
      )
    )
  )
  (global_context): GlobalContext(
    (global_avg): AdaptiveAvgPool2d(output_size=1)
    (conv_last): ConvBnRelu(
      (conv): Conv2d(160, 128, kernel_size=(1, 1), stride=(1, 1), bias=False)
      (bnrelu): InPlaceABNSync(128, eps=1e-05, momentum=0.1, affine=True, activation=leaky_relu, slope=0.01)
    )
    (se_channel_att): ATT(
      (avg): AdaptiveAvgPool2d(output_size=1)
      (amg): AdaptiveMaxPool2d(output_size=1)
      (conv1): ConvBnRelu(
        (conv): Conv2d(160, 128, kernel_size=(1, 1), stride=(1, 1), bias=False)
        (bnrelu): InPlaceABNSync(128, eps=1e-05, momentum=0.1, affine=True, activation=leaky_relu, slope=0.01)
      )
      (conv2): ConvBnRelu(
        (conv): Conv2d(128, 128, kernel_size=(1, 1), stride=(1, 1), bias=False)
        (bn): InPlaceABNSync(128, eps=1e-05, momentum=0.1, affine=True, activation=none)
      )
      (sigmoid): Sigmoid()
    )
  )
  (keep_res): KeepRes(
    (block1): sdBlock(
      (conv): ConvBnRelu(
        (conv): Conv2d(168, 64, kernel_size=(1, 1), stride=(1, 1), bias=False)
        (bnrelu): InPlaceABNSync(64, eps=1e-05, momentum=0.1, affine=True, activation=leaky_relu, slope=0.01)
      )
      (bn1): InPlaceABNSync(64, eps=1e-05, momentum=0.1, affine=True, activation=leaky_relu, slope=0.01)
      (bn2): InPlaceABNSync(64, eps=1e-05, momentum=0.1, affine=True, activation=none)
      (relu): LeakyReLU(negative_slope=0.01)
      (conv3x1_1): Conv2d(64, 64, kernel_size=(3, 1), stride=(1, 1), padding=(1, 0))
      (conv1x3_1): Conv2d(64, 64, kernel_size=(1, 3), stride=(1, 1), padding=(0, 1))
      (conv3x1_2): Conv2d(64, 64, kernel_size=(3, 1), stride=(1, 1), padding=(2, 0), dilation=(2, 1))
      (conv1x3_2): Conv2d(64, 64, kernel_size=(1, 3), stride=(1, 1), padding=(0, 2), dilation=(1, 2))
      (conv3x1_3): Conv2d(64, 64, kernel_size=(3, 1), stride=(1, 1), padding=(5, 0), dilation=(5, 1))
      (conv1x3_3): Conv2d(64, 64, kernel_size=(1, 3), stride=(1, 1), padding=(0, 5), dilation=(1, 5))
      (bn3): InPlaceABNSync(64, eps=1e-05, momentum=0.1, affine=True, activation=none)
    )
    (block2): sdBlock(
      (conv): ConvBnRelu(
        (conv): Conv2d(192, 64, kernel_size=(1, 1), stride=(1, 1), bias=False)
        (bnrelu): InPlaceABNSync(64, eps=1e-05, momentum=0.1, affine=True, activation=leaky_relu, slope=0.01)
      )
      (bn1): InPlaceABNSync(64, eps=1e-05, momentum=0.1, affine=True, activation=leaky_relu, slope=0.01)
      (bn2): InPlaceABNSync(64, eps=1e-05, momentum=0.1, affine=True, activation=none)
      (relu): LeakyReLU(negative_slope=0.01)
      (conv3x1_1): Conv2d(64, 64, kernel_size=(3, 1), stride=(1, 1), padding=(1, 0))
      (conv1x3_1): Conv2d(64, 64, kernel_size=(1, 3), stride=(1, 1), padding=(0, 1))
      (conv3x1_2): Conv2d(64, 64, kernel_size=(3, 1), stride=(1, 1), padding=(2, 0), dilation=(2, 1))
      (conv1x3_2): Conv2d(64, 64, kernel_size=(1, 3), stride=(1, 1), padding=(0, 2), dilation=(1, 2))
      (conv3x1_3): Conv2d(64, 64, kernel_size=(3, 1), stride=(1, 1), padding=(5, 0), dilation=(5, 1))
      (conv1x3_3): Conv2d(64, 64, kernel_size=(1, 3), stride=(1, 1), padding=(0, 5), dilation=(1, 5))
      (bn3): InPlaceABNSync(64, eps=1e-05, momentum=0.1, affine=True, activation=none)
    )
    (dim_reduction): ConvBnRelu(
      (conv): Conv2d(64, 32, kernel_size=(1, 1), stride=(1, 1), bias=False)
      (bnrelu): InPlaceABNSync(32, eps=1e-05, momentum=0.1, affine=True, activation=leaky_relu, slope=0.01)
    )
  )
  (merge_att): MergeAttention(
    (merge_att): ConvBnRelu(
      (conv): Conv2d(64, 32, kernel_size=(1, 1), stride=(1, 1), bias=False)
      (bnrelu): InPlaceABNSync(32, eps=1e-05, momentum=0.1, affine=True, activation=leaky_relu, slope=0.01)
    )
    (ch_avg_pool): AdaptiveAvgPool2d(output_size=1)
    (channel_se): Sequential(
      (0): Conv2d(64, 32, kernel_size=(1, 1), stride=(1, 1))
      (1): LeakyReLU(negative_slope=0.01)
      (2): Conv2d(32, 32, kernel_size=(1, 1), stride=(1, 1))
      (3): InPlaceABNSync(32, eps=1e-05, momentum=0.1, affine=True, activation=none)
      (4): Sigmoid()
    )
    (dim_reduction): ConvBnRelu(
      (conv): Conv2d(128, 32, kernel_size=(1, 1), stride=(1, 1), bias=False)
      (bnrelu): InPlaceABNSync(32, eps=1e-05, momentum=0.1, affine=True, activation=leaky_relu, slope=0.01)
    )
  )
  (last_conv1): OutputLayer(
    (drop): Dropout2d(p=0.1)
    (conv): ConvBnRelu(
      (conv): Conv2d(32, 19, kernel_size=(1, 1), stride=(1, 1), bias=False)
      (bn): InPlaceABNSync(19, eps=1e-05, momentum=0.1, affine=True, activation=none)
    )
  )
  (last_conv2): OutputLayer(
    (drop): Dropout2d(p=0.1)
    (conv): ConvBnRelu(
      (conv): Conv2d(32, 19, kernel_size=(1, 1), stride=(1, 1), bias=False)
      (bn): InPlaceABNSync(19, eps=1e-05, momentum=0.1, affine=True, activation=none)
    )
  )
  (last_conv3): OutputLayer(
    (drop): Dropout2d(p=0.1)
    (conv): ConvBnRelu(
      (conv): Conv2d(32, 19, kernel_size=(1, 1), stride=(1, 1), bias=False)
      (bn): InPlaceABNSync(19, eps=1e-05, momentum=0.1, affine=True, activation=none)
    )
  )
)
0
1
it: 100/80000, lr: 0.000020, loss: 9.7065, eta: 1 day, 6:53:12, time: 137.7712
it: 200/80000, lr: 0.000040, loss: 9.2295, eta: 21:42:29, time: 57.1100
it: 300/80000, lr: 0.000079, loss: 8.3969, eta: 18:47:01, time: 58.8013
it: 400/80000, lr: 0.000157, loss: 7.1859, eta: 17:44:22, time: 66.4273
…
